MLP-digit-recognizer/saved/w0.npy (npy, 75392 bytes, 1 tensors)

array f8 [12, 784]
00000000: 4b94 505e cb91 9cbf cc08 6ad5 f4da 803f
00000010: e20f 38ff fff7 95bf 8bbe 9cc5 8e5f 90bf
00000020: a25e 1440 9d27 97bf ce51 d90c 2fc3 953f
00000030: c08b 5d6b 1772 833f 28f5 ee81 3e77 8d3f
00000040: 9e18 46d0 a68d 98bf a443 a495 bda1 803f
00000050: 0646 5361 98a9 9a3f 261b 87c7 9cbf 943f
00000060: d47a 14e5 601b 79c0 9b6c f502 9127 90c0
00000070: 4adc af60 4876 65c0 2c95 33fd 51a2 1cc0
00000080: f410 0d04 1ea6 93bf a4ff 864b 7f8c 853f
00000090: e6f0 48f7 b3a3 a03f 703c 9255 9618 8e3f
000000a0: ae61 ebe9 6112 9a3f f715 e7fe 0519 91bf
000000b0: 7ccd 40b0 3274 87bf b83f 5d4a 81d3 883f
000000c0: 8849 2239 a6e4 9a3f 30ed 6d49 806a 8d3f
000000d0: d015 0251 7b95 933f d035 afca b4c7 99bf
000000e0: 5099 f3b6 8b29 9f3f 6607 34fa 014e 9cbf
000000f0: 30b5 daac 2769 723f 3e2e 5d59 3145 953f
00000100: 2d8d 684b cab8 3bc0 54be c2c2 8a5b 5bc0
00000110: 84e8 b353 3010 a4c0 a57b 64b5 b37c bbc0
00000120: 895d 1dd7 c894 c0c0 3e13 0382 a1d0 c1c0
00000130: ce3c 8d7e 60c4 cfc0 d1f4 d6d9 b10e d7c0
00000140: 418c ab1d 1576 ddc0 57e3 07d9 e744 d8c0
00000150: 9f5c b9c2 5166 d6c0 b932 b114 e863 d5c0
00000160: b207 068a fe22 d5c0 937c 0eda 3e8f d5c0
00000170: cffd 32ec dae1 cec0 19c1 39cc b213 c0c0
00000180: 1f34 ffcc f1ae b4c0 dfb7 ec93 eb84 a6c0
00000190: 0007 8a4e b632 98c0 554b fc17 2162 8ec0
000001a0: 8b46 25c2 b605 96bf b8c6 b89c 45e3 9e3f
000001b0: 1052 2336 8789 683f 6076 42f1 f45b 923f
000001c0: 88a8 669c 9f11 803f 5873 3396 aa43 8d3f
000001d0: e921 d6ca 5a6f 45c0 ac28 79f0 10cb 62c0
000001e0: 6aff 9c1c 3528 91c0 a3ba e8ee a896 82c0
000001f0: 62e6 4df6 9bd5 b0c0 76cb debe 7cd2 d0c0
00000200: 436b 6cd7 b874 e0c0 e94a 8684 7f6d ebc0
00000210: c089 220e c7fc f7c0 cfba 5f66 80d3 00c1
00000220: 867e 787f 8039 08c1 0eab f542 4c2c 0fc1
00000230: 0005 cc9d 1f5c 12c1 cf2b 101d c244 14c1
00000240: cee6 325a 95c0 15c1 479d 7711 609c 14c1
00000250: 097c f59f 6a07 12c1 f5e9 07af 8aee 0bc1
00000260: bbb5 f553 aae4 00c1 4afe 4298 e08e f2c0
00000270: 598e 1b21 2fe0 e1c0 7bf5 332f 0d7d c9c0
00000280: 67d8 874d 86b8 a2c0 47b8 c7e2 6c67 2440
00000290: 68d6 084d dfee 973f 0ee8 4f2d aa8d 97bf
000002a0: a400 16e6 2dd1 96bf 6b04 2d2f 54be 9fbf
000002b0: 9485 fb16 f546 0740 baa4 d663 8e7d 91c0
000002c0: 3a4d 05d2 ab4d 95c0 3963 f2fe ed60 9fc0
000002d0: 4765 d809 ff8b bec0 4e05 9dcd 2e86 d3c0
000002e0: 2374 691b ff5c e7c0 dd44 1b8e 60ba f5c0
000002f0: 1501 4fb1 35cd 01c1 e52a f675 3ab0 0ac1
00000300: 2b33 bfc9 d8b9 11c1 f5e2 9edf a75e 19c1
00000310: 07ce 1dc0 af23 22c1 da8f c13e f950 26c1
00000320: e98f 4aa7 941b 29c1 98d2 9a71 6cb2 29c1
00000330: c6ce 91ac fa50 28c1 51b4 962f 089f 23c1
00000340: bc05 432c 0030 1ac1 c1f3 763d 5458 0dc1
00000350: 08c8 c028 ac82 fcc0 96ef 56be 79ed e7c0
00000360: ac90 91db 0739 d1c0 1efe 14de bdbb 8dc0
00000370: cab5 c904 22e0 63c0 88fc de8a caea 713f
00000380: 28e1 5ae1 0924 a0bf 990c a200 b1bf 0740
00000390: ea8e 62d8 9bd1 8040 c0a3 bede 5507 6940
000003a0: 226d 0553 327e 8ec0 f974 f051 e79b cac0
000003b0: 8fe5 0e74 d0b4 cfc0 917d ee1d 21b0 e2c0
000003c0: 8d5c 2691 91fa f3c0 0edd e6e9 d579 00c1
000003d0: 4bcc af80 96d8 09c1 d1c2 3c31 9f32 10c1
000003e0: 8da1 d054 b2eb 16c1 c520 1bdf 86d7 1dc1
000003f0: 8302 8a24 236a 22c1 e3b4 41a2 bf2f 26c1
00000400: 5d43 8093 62b1 2ac1 c5db 4640 68dd 2cc1
00000410: 11fa bd0d 99a2 2bc1 795f 50fe ccb8 26c1
00000420: f688 d6ec 7895 1fc1 43c3 0e18 0859 14c1
00000430: d39c f973 2653 09c1 ecd8 6026 454a f8c0
00000440: 6149 d016 f360 d2c0 0ab2 b3cf b789 bc40
00000450: 0d06 ed70 0aeb ae40 1dfe 83d8 1d28 6540
00000460: fcec 476c 6c7a 84bf 35e5 11e0 641f a2bf
00000470: 0dcf 36ea a6e2 79c0 4b6a ad28 db32 8340
00000480: 1b2e 64cc 1ecd bcc0 7a07 f257 e018 e3c0
00000490: aec0 8b5d e271 f5c0 0b76 f941 2f6f 04c1
000004a0: 1229 f4db a6ef 10c1 81bd bc94 1249 1ac1
000004b0: f2cb 76bc e566 20c1 b679 6c2f a5a4 20c1
000004c0: e9ff 2b2f d941 22c1 1692 c061 87be 22c1
000004d0: 1bd6 85e2 0f59 23c1 06cd cbf2 6cf0 24c1
000004e0: e952 a0b5 a835 28c1 fe76 ddb2 0b4a 29c1
000004f0: e5b2 2b39 7e1f 2bc1 d46d 5391 8dfe 28c1
00000500: adc2 8d82 355c 24c1 8419 ee46 ab6d 20c1
00000510: 3ad4 addb 9541 18c1 6f78 75e2 0a4f 10c1
00000520: 3fb0 f754 f6ed f3c0 f000 4dec e180 c540
00000530: 1d62 7463 3aeb ad40 6da6 6202 e89a 7040
00000540: e825 3ddb 6c10 833f 8845 0979 3007 22c0
00000550: 1299 3b29 b7ad 9b40 c7c3 d711 40d6 9d40
00000560: 0c94 2aef 3e7b c9c0 d0a2 5865 3bed f0c0
00000570: 8666 bc37 5f99 03c1 5474 898c 230b 13c1
00000580: 6ceb b072 1f8c 1cc1 206e 5018 2fe5 23c1
00000590: b606 3e67 9ebf 24c1 8fda 9e53 a278 1cc1
000005a0: 8fc9 1490 e64a ecc0 a848 6b81 ce31 2241
000005b0: 8b3a f79f ff7f 3241 85f7 22f5 3b04 3641
000005c0: 2cb3 345d f5bc 3341 05c5 9b4d 2e42 2841
000005d0: 55f0 db23 b1c1 0341 af7c 3851 85fb 13c1
000005e0: 7a75 da0c b505 20c1 73fd a6d4 d0a5 21c1
000005f0: 3d56 e90f 7795 1ec1 06f4 a4fe 4d73 16c1
00000600: 62f1 a5db 4efe 04c1 d21e 9d64 9085 d6c0
00000610: 1bbc ec90 b5da a6c0 bd16 524b 1c9f 96c0
00000620: 8064 c9aa e5e9 3e40 2f1c 872c 748f 6040
00000630: e0d0 e02c dec0 c040 f5fb afc3 806c d440
00000640: 4d6e 33ff 1a96 d540 c49f 7632 db3b d4c0
00000650: 7890 ac6d 842e f7c0 5560 01e0 204a 0ac1
00000660: b6e7 74f6 9db0 12c1 95c6 52db 5749 12c1
00000670: 5781 1fe2 56c8 dc40 c44e 8b79 5f9d 2841
00000680: 31a3 6b41 3d38 3b41 2256 d7f6 7152 4441
00000690: 05a9 a07b 8ec6 4841 b9d9 46fa c01d 4a41
000006a0: 950d 8070 1608 4841 5e3a 3937 0d2c 4241
000006b0: 034e 415d 8f10 3641 a8e6 1f9f 5d52 2341
000006c0: 65aa 4a9a 8ff0 f740 d52f 3dfd 9d6f 0ec1
000006d0: c787 255a 2045 15c1 e923 fa8b 6c8b 10c1
000006e0: 560a bef7 25da 01c1 ac05 d537 40a5 e4c0
000006f0: d8c9 f9ba 3c22 cac0 2ec8 758a ddd4 8fc0
00000700: 4be8 bc42 876b 7ac0 d0d0 741c dc48 8940
00000710: 9a6f d4d6 0ac1 d440 69d5 ea55 19e4 eb40
00000720: fa97 0652 09b9 f640 93d8 532c 1570 f740
00000730: 8f1b 4dd1 33b3 f540 f1cc cdb9 5635 e640
00000740: f5f4 6894 a8c5 0241 7628 9509 92ce 1d41
00000750: 0c70 0a09 ddd0 3341 1bf5 1f2d 6bab 4041
00000760: 3676 1a8b 71a4 4541 6cb4 56a7 5d07 4741
00000770: 440e 3100 95b8 4641 1658 b353 28a8 4641
00000780: de9f 10b5 d7f2 4541 57d4 2a2f 066e 4241
00000790: 7924 dada 7adf 3b41 594e 6153 f6a7 3141
000007a0: 736d a32e 1b67 2141 1404 9883 27f5 0941
000007b0: 11f3 18bf d935 d940 636f c467 a222 a5c0
000007c0: 508e 99df 4ac4 cdc0 77d1 05b6 f0f8 c1c0
000007d0: 6d23 f01d 7ae5 b3c0 e550 529c 6041 11c0
000007e0: 7748 ad77 0fb6 7240 9c3e d140 30d5 a240
000007f0: cc16 8bc8 6390 df40 04d9 251c 5339 f540
-0.027899911529079707 0.008230126154789373 -0.02145385737641437 -0.01598952370767263 -0.022612053905588632 0.02125237956927766 0.00949495598223915 0.014387596454862164
-0.023977858030342795 0.008120995644761049 0.026037579479469407 0.020262193372924696 -401.71115596771165 -1033.8916128490007 -171.6963351664329 -7.158515888474806
-0.019188374516731124 0.010521883480464407 0.03249895471205537 0.014695333944727745 0.025460748579321617 -0.016697019274735294 -0.011452098850077468 0.012122163850705067
0.026262852894953365 0.014363291016471352 0.019124914950699623 -0.02517588126265996 0.030431921998478828 -0.027641325851625174 0.0044948148549058126 0.020771761969895268
-27.72183677008177 -109.43034428613583 -2568.09438860143 -7036.701986580073 -8489.569064779922 -9121.261780151744 -16264.753862051668 -23610.778920878485
-30168.32993591973 -24851.622621509563 -22937.27751001401 -21903.626262950453 -21643.97717428924 -22076.98205911794 -15811.71033322709 -8231.396857470785
-5294.944534254289 -2882.4601129507496 -1548.6780339781544 -972.2661590300073 -0.021506171798427103 0.030163848581827607 0.002995266041674556 0.017928912377661255
0.007846114120941175 0.014289219578523735 -42.86995826202094 -150.34581779159396 -1098.0518669634716 -594.8324869329412 -4309.609227055307 -17225.9491497981
-33701.77629681539 -56171.98492731696 -98252.44095090684 -137840.04998727745 -198448.06224154326 -255369.53269513737 -300807.90409858525 -332080.52838200046
-356389.3380847991 -337688.0170578551 -295386.6562098866 -228817.3354643133 -138389.29099599816 -76014.0371732648 -36609.47279146006 -13050.103003020156
-2396.262310261885 10.202002608184683 0.02337216289216429 -0.023001345649369447 -0.022282330673534148 -0.030999484424004835 2.9096471591480597 -1119.3890527284661
-1363.4177933529268 -2008.232417857462 -7819.996243977285 -19992.73129964369 -47847.97209618266 -88998.03469397449 -145830.71157646985 -218631.3075984336
-290422.19701843214 -415657.9683795416 -594391.8752273925 -731260.6225705103 -822730.326740739 -842038.2218843279 -796797.3370499245 -642948.092946658
-429056.04322442017 -240394.5300120395 -116778.75994947564 -49003.804484813634 -17636.12277640465 -951.4677087440539 -159.004152673688 0.0043743049445189655
-0.03152495265880112 2.9685993241742605 538.2010963153709 200.22923218950564 -975.7745724128656 -13623.807188088527 -16233.62854181489 -38273.03490376019
-81833.09793697503 -134970.73920986842 -211730.8128353081 -265383.7980833473 -375532.5828271143 -488929.71787692263 -603409.5713654313 -727007.8169075515
-874673.2880879451 -945844.1255406073 -905548.5268400331 -744550.4967069469 -517470.2312871361 -333378.0234938154 -207460.806628442 -99492.32186970458
-18819.79826743284 7305.71801303002 3957.5203928060423 169.2536432817441 -0.00999912934729829 -0.03539576754787747 -414.1657507077187 614.3570111797393
-7373.120306264168 -39111.010735525706 -87838.14783835664 -167397.90721409055 -277481.7147985856 -430660.6452512369 -537458.8680938466 -545362.5926244769
-598252.5921325657 -614211.6909223225 -633991.9424273403 -686134.4742111273 -793300.354738799 -828677.8493458924 -888767.1116615204 -819014.7838396379
-667162.7549877964 -538325.6385353063 -397413.46453029255 -267202.7211512392 -81631.39574402662 11009.76502382799 3829.61404002855 265.6816428998489
0.009308672371520069 -9.014041693097866 1771.4288682281663 1909.562568064999 -13046.491673776902 -69331.71224273299 -160555.90221481415 -312008.88724309695
-467719.8620030198 -651927.5474886335 -679887.2016450975 -466472.58166066644 -57943.205088037175 596199.2527716355 1212415.6248661603 1442875.9575648021
1293557.3640853865 794903.1515790528 161846.1425093437 -327393.3293170435 -525018.5251042091 -578280.4153365329 -501085.765538547 -367827.4986761216
-171977.85725010472 -23062.256140976046 -2925.354621313059 -1447.7776310755137 30.913660692375288 132.48293138874712 8577.735744573583 20914.011943813373
22104.421826226917 -20719.424955039998 -94952.2767758983 -215364.10937762508 -306215.49068033264 -299605.9641829518 29473.357551456746 806575.7373909582
1783869.2555486674 2663651.928446547 3247388.965840461 3423105.955287185 3149868.878907869 2381850.43143396 1446031.3642777211 633134.8107902603
98056.97516886292 -249331.7486518609 -348488.08803379204 -271067.1366963969 -146244.745967942 -42282.00681544407 -13380.474456046635 -1018.6081742479053
-422.72052263061477 809.1074761511063 21252.169362172113 57120.791737953965 93072.58252581945 96001.32332214927 88883.23859892621 45482.71018114116
153781.07246581433 488356.5093580553 1298653.0353155164 2184918.352537764 2836707.086745049 3018427.3073335197 2978090.001497062 2969680.653910647
2876847.414569839 2415628.368494551 1826682.85489109 1157110.3257035224 570253.5910906031 212644.93925479113 25815.402288663263 -2705.317197931859
-15240.584948725213 -9201.880554892805 -5093.477019318246 -4.313845102810068 299.3787762421484 2410.594244517224 32321.559115192664 86933.1943720319
