MLP-digit-recognizer/saved/w1.npy (npy, 1280 bytes, 1 tensors)

array f8 [12, 12]
6.377974568943043 28.642643155092127 -13.212986359368559 8.800235812285809 11.56340022130485 -8.959790079529375 -0.14057442095983078 9.713372775950711
24.43779041433222 26.054351689311698 1.5095804654440863 -6.546528688233213 3.04880933848738 24.084381707681537 -33.46071227488906 36.521298729173886
11.19446091692161 -10.647796098774664 -5.922128989569983 18.670490986921507 35.01316131854155 26.773332992140425 -7.063960908507825 8.997984305115695
4.5601172249353965 -25.54653573207497 40.65658913733503 -41.40699835640513 -7.118255200285393 -1.0568576536863148 -37.300965428139456 53.98456881729704
-14.013146739639764 -46.924204626111845 -33.33722327767528 -20.448873747883066 -20.17983244275635 -36.808020621782276 -13.475709202508398 -24.84971376800766
13.812119642975157 -15.155921181482062 -8.324235635282562 16.25994871244482 -6.727053729597895 -8.74873919955516 -37.41865683898985 14.730671724554286
-57.30201483918579 -4.658111761989232 23.423345766106713 -13.169755610855441 -23.939996785880883 -95.16964306150821 18.00159124079341 -43.24114861636935
-60.1435901481339 67.94292426427637 -9.175048220880655 93.66020664943882 -52.50480684230896 -102.83183759594621 20.431365415527708 90.43247812638239
2.7840092275598285 33.67511573293297 93.88789555401543 23.560430706281814 -1.3535058157553865 -0.14987893054551904 -68.9565437190299 -31.11672407574007
7.830170448368632 80.13377026937724 35.876106430437765 -52.92918810695145 -10.028568855768336 47.73631109373401 -29.812469919950384 59.712914182960326
-103.7470656920951 50.42519788002497 -2.4296479789065017 13.11915420614826 16.794090624815073 -31.746564832397787 -5.1185986693776195 9.451270921732004
10.109382221698572 -45.471949955761445 -45.55598900070214 35.48714544787822 -35.257667526688536 30.59324876965205 -72.54389594371249 20.524590802331584
0.17434729362934193 -0.15909134107328676 26.69791450195971 -11.493213874024898 0.6670792413843109 -7.441972518857109 0.08892882312844778 -9.133531684658726
9.813063570143377 -11.683307049475038 13.038364860359168 -7.30347598500925 -4.002287902020642 -4.581178043979347 -24.423086396602237 -5.901354752403106
14.113593887568308 20.959183669183464 -13.784173976873952 42.255963840948866 6.939607430552077 -56.11990950867779 25.680181026632397 -9.019968552599973
0.10949582353383909 11.088273292305932 7.722431442338887 -12.13168264287542 -2.0732599580140243 -26.760524055268682 -1.8127843975150773 -17.157199916916028
3.6782065707162843 -15.866045490726906 18.56918014836917 16.239899493160912 82.36846680297509 -9.929748149446615 -5.249389801442931 59.2209148807933
-10.287828995420385 42.18902069978446 -23.05401685795894 -48.59186331865292 -62.3051677994889 17.684799129281593 16.71463330552267 30.562716017853347
00000000: fd51 f1c3 0b83 1940 731e 0643 84a4 3c40
00000010: d1f6 4f8c 0c6d 2ac0 0ab6 2582 b899 2140
00000020: 8220 6afe 7520 2740 3335 f59a 69eb 21c0
00000030: 299b 56b6 57fe c1bf 4d21 4d32 3f6d 2340
00000040: 260f 5808 1370 3840 7b13 08fe e90d 3a40
00000050: 7734 9cd8 3d27 f83f 5426 6937 a52f 1ac0
00000060: 6e57 8426 f663 0840 72df 220a 9a15 3840
00000070: d4c1 ac9e f8ba 40c0 c59f b0ea b942 4240
00000080: 960e 9d61 9063 2640 596d 25ee ab4b 25c0
00000090: 1f96 f394 42b0 17c0 3417 1d4c a5ab 3240
000000a0: a65a 2445 af81 4140 3429 a626 f9c5 3a40
000000b0: e20d e9f7 7e41 1cc0 51c9 80cc f7fe 2140
000000c0: 6018 ac5e 8f3d 1240 805b 07c4 e98b 39c0
000000d0: a4e1 e31c 0b54 4440 9524 ab85 18b4 44c0
000000e0: 143b 27e4 1779 1cc0 a0c2 3192 e3e8 f0bf
000000f0: f58a ff08 86a6 42c0 e179 db59 06fe 4a40
00000100: 879a 612b bb06 2cc0 2cfb 5156 4c76 47c0
00000110: 5a88 e221 2aab 40c0 d330 d363 e972 34c0
00000120: f865 bc7f 092e 34c0 3486 4038 6d67 42c0
00000130: 105c 1628 90f3 2ac0 c88d 6cd7 86d9 38c0
00000140: f508 5625 ce9f 2b40 3370 aee6 d44f 2ec0
00000150: 0879 9336 02a6 20c0 7b96 b2ff 8b42 3040
00000160: 2c3b dcc5 80e8 1ac0 30a5 8ebe 5a7f 21c0
00000170: a4da 1b8c 96b5 42c0 2925 b29a 1a76 2d40
00000180: d69a 186c a8a6 4cc0 3f6d bb0c e8a1 12c0
00000190: 1254 5c63 606c 3740 8ddf 1935 ea56 2ac0
000001a0: 19b4 1da1 a3f0 37c0 f34a 926e dbca 57c0
000001b0: f22a 9748 6800 3240 1964 36f5 dd9e 45c0
000001c0: a721 7729 6112 4ec0 006b 03df 58fc 5040
000001d0: 90cf 9feb 9f59 22c0 41fc 63d3 406a 5740
000001e0: cb41 b782 9d40 4ac0 068b c1d3 3cb5 59c0
000001f0: 2451 c0f6 6d6e 3440 0e43 bcb8 ad9b 5640
00000200: b10d 41a1 a645 0640 29fb 3c31 6ad6 4040
00000210: a5b0 df47 d378 5740 9227 0363 788f 3740
00000220: ced7 d9b6 f5a7 f5bf 00b7 8698 3b2f c3bf
00000230: 5e9b 2503 383d 51c0 9df5 07a1 e11d 3fc0
00000240: 4e65 b733 1852 1f40 c009 2db1 8f08 5440
00000250: d345 6941 24f0 4140 2598 c9a2 ef76 4ac0
00000260: 156b ba93 a00e 24c0 81a2 2171 3fde 4740
00000270: af2b 5707 fecf 3dc0 a755 9ec5 40db 4d40
00000280: c6e0 9eec cfef 59c0 9484 56e2 6c36 4940
00000290: 4091 9147 eb6f 03c0 dc2c b5c7 013d 2a40
000002a0: 15a4 ef85 49cb 3040 027e 73df 1ebf 3fc0
000002b0: d14d f9ed 7179 14c0 10f3 74fb 0ce7 2240
000002c0: 1beb 51f2 0038 2440 0aac 2cdb 68bc 46c0
000002d0: c879 c7a5 2ac7 46c0 2084 33c8 5abe 4140
000002e0: 2a2f e03f fba0 41c0 3c0c c026 df97 3e40
000002f0: 05ab ee30 cf22 52c0 ebcb 3395 4b86 3440
00000300: 765e 241a 0351 c63f 3647 7ee5 1a5d c4bf
00000310: 3252 5986 aab2 3a40 a5bd 6587 86fc 26c0
00000320: 5fc1 b290 b658 e53f 5be3 a871 94c4 1dc0
00000330: e329 0213 0ac4 b63f 932d d543 5e44 22c0
00000340: 6cab 46de 49a0 2340 3b3e ed6b da5d 27c0
00000350: d11d 198f a413 2a40 c8f1 9a68 c236 1dc0
00000360: a26b 81c2 5702 10c0 9d2d 5056 2053 12c0
00000370: 02ca dc63 4f6c 38c0 7da9 7ebd fc9a 17c0
00000380: 4543 60fa 283a 2c40 1100 9a0f 8df5 3440
00000390: 8418 6240 7f91 2bc0 beea 526c c320 4540
000003a0: f532 4573 28c2 1b40 1220 dd31 590f 4cc0
000003b0: f0be 0058 20ae 3940 0ebb 7051 390a 22c0
000003c0: 755d 2015 eb07 bc3f e220 2f28 322d 2640
000003d0: 5fca 6911 c5e3 1e40 9933 49e8 6b43 28c0
000003e0: 6936 1e51 0996 00c0 4633 59b4 b1c2 3ac0
000003f0: cf6b 6036 2a01 fdbf 9816 f640 3e28 31c0
00000400: 2045 0991 f76c 0d40 690a 8750 6abb 2fc0
00000410: 2cc7 4aca b591 3240 fe73 9d0d 6a3d 3040
00000420: 241c c9f5 9497 5440 8bc7 0ef3 07dc 23c0
00000430: 019d 440a 60ff 14c0 7e1a 56f0 469c 4d40
00000440: 9957 7452 5e93 24c0 afeb 8dd4 3118 4540
00000450: c75d 7e0c d40d 37c0 7da8 5e2d c24b 48c0
00000460: 6e4c 0bbd 0f27 4fc0 fe97 e8fe 4eaf 3140
00000470: 2dda 5335 f2b6 3040 909d 2d28 0e90 3e40
