MLP-digit-recognizer/saved/w2.npy (npy, 1088 bytes, 1 tensors)

array f8 [10, 12]
00000000: cad0 af2b 5ad0 b2bf fe45 3284 683f f0bf
00000010: 30f8 b64b f5aa 05c0 b864 3374 1d02 ffbf
00000020: 8d7e ed57 6e12 ff3f a7d4 97a3 36ba 0740
00000030: 9990 1061 5f92 10c0 9342 9c5a bbd6 f0bf
00000040: ef68 1e94 ee3a f23f e97a b506 d666 13c0
00000050: 7947 7f5c 1cd2 f5bf cbcb 45dd 3372 e43f
00000060: 05b3 15ce 9761 04c0 72a0 38b6 ba52 15c0
00000070: 2982 cc0b 1034 1040 481e b1ff aefa cdbf
00000080: 004c 1e6b 82bf dcbf c07f f971 db0d e43f
00000090: d7ca 835f bb9f 0f40 77e3 1130 0834 d73f
000000a0: 3c94 8650 8b07 dd3f d6a9 83d8 d07a dabf
000000b0: 44b2 3426 1ec7 f5bf 2085 128a 281d 0440
000000c0: 94f1 fd17 f36d e1bf e139 ad5d 256c dc3f
000000d0: 38ff 6f4c 5709 f2bf 1b34 475f cf4b 0140
000000e0: 37e0 7b91 6795 eb3f aeb5 018e 36dd f1bf
000000f0: 31aa 8200 a5cf c03f a04c ee8d 0bce 0b40
00000100: d433 7c41 9a3b e8bf 27d8 aec9 6407 debf
00000110: 380e 41f3 e284 e4bf 4bdf 0262 6474 f3bf
00000120: 54ee 0d14 f206 7c3f efb5 baf2 3f32 f53f
00000130: 6158 c47f 4f36 0ac0 d311 0ee8 2358 eebf
00000140: ce26 e3d4 166c 03c0 ca2a 9794 8597 fa3f
00000150: a97f b75d 780c 0140 a760 6385 5ffb e3bf
00000160: 2ae0 c482 b2b8 0bc0 9d12 b935 6295 ad3f
00000170: 3a93 a440 4a22 08c0 b006 413f 6f67 ea3f
00000180: 4bae fe8b cf35 d83f edf8 f75d 807f cebf
00000190: 15c9 c3ea 74f6 d4bf e2b1 77a2 4b4a 07c0
000001a0: 7c24 007d 0c10 c43f 3eca 34f4 5626 febf
000001b0: ecbc 46aa f2e4 de3f c810 4dd7 5207 ffbf
000001c0: 2e64 32e6 1007 a4bf 19ef f42a 3312 c43f
000001d0: 2210 6119 e3f5 e93f efe8 9820 6b1a 0bc0
000001e0: 7bc8 93da c8d5 03c0 3853 1b7c d529 febf
000001f0: 4919 b555 3c70 0bc0 04d0 592e 7162 f5bf
00000200: 46e7 1283 e93b f6bf e328 1980 cb80 0840
00000210: 5ca2 41e0 a99b 11c0 9d8a 4da8 fbed 00c0
00000220: 06ad 5cf7 6e5c ea3f a9fb 57c4 3e43 0640
00000230: c786 bb7f 95a3 debf fd22 7b95 5e0b f83f
00000240: dff9 c441 2904 f7bf 9790 f6ef 225a e5bf
00000250: cfab 3a57 4ad5 ed3f 52af 5605 9032 0b40
00000260: 3a65 c240 0e8c debf c7c5 9e8b 6e5a f83f
00000270: 3233 10cd 788a 03c0 5cf1 9684 dd5b 05c0
00000280: f844 6714 025a f4bf 6ce3 f3df 1d2d ec3f
00000290: 5c55 da9d 859a 903f 2c4e 32f6 7da4 10c0
000002a0: 364b b084 13a9 ecbf b62b f31a f226 adbf
000002b0: ff9e 7b3a cb7e dfbf eac4 5e3f 5c91 06c0
000002c0: a823 2fc6 1d11 e43f 1252 24d9 9057 10c0
000002d0: 9d0b bf42 d0fc 983f 9b15 541f 2bbc 00c0
000002e0: 5358 9de9 d00c dabf acf2 3b1f 0b32 f9bf
000002f0: 27ae 7e69 70ea ff3f 20b7 6393 b0d7 1140
00000300: 7e7c 5b46 ac29 d2bf 986f 75e9 873d f23f
00000310: 39ef 2595 fd5a 0d40 57a6 1eeb 1466 08c0
00000320: d31d 49f3 7941 01c0 1d61 0dfe 1ee7 a3bf
00000330: f818 e967 8d2d 10c0 8f00 0594 801b e53f
00000340: ffce 9a9d e09f dabf ec0d 5f66 377a ec3f
00000350: dc99 a36a f3ef d2bf 3ba1 a5a9 1d56 ef3f
00000360: be47 f2a2 87db c2bf 4afb 4b45 0014 cfbf
00000370: a4b6 d785 fb84 fdbf cf34 8c63 972e f6bf
00000380: e863 afed cb73 09c0 6bdb d149 d9cd 0fc0
00000390: d54c 50f5 d93e cebf f919 45b2 e12b 00c0
000003a0: 8689 a92d 6bed ee3f a3c6 cf51 0d79 f03f
000003b0: 7cac 6f6e a80b f3bf 752d 1319 3658 c9bf
-0.0734917027146508 -1.0154805339738 -2.7084756770336966 -1.9380163706867233 1.9419997629810581 2.9659245281896633 -4.1429419676170705 -1.052424768397178
1.139387682522791 -4.850425820185344 -1.3637965787097228 0.6389407464724796 -2.5476528263446903 -5.330790373998854 4.050842460972981 -0.23421275601343639
-0.4491888090207681 0.6266915536943927 3.9529941045851547 0.3625507802421945 0.4535854612716468 -0.413746081771618 -1.3611127369323563 2.5142374789144384
-0.5446715801804651 0.44410070560561904 -1.1272805200423601 2.1620166247944446 0.8619878617746569 -1.1165071055541875 0.13133680844232878 3.475607975802248
-0.7572757033354898 -0.4692012757835777 -0.6412214995438665 -1.2159160450518864 0.006842561357980854 1.3247680169691838 -3.2765188199801263 -0.9482593090365817
-2.4277779228039895 1.6619926266018177 2.1310889550804473 -0.624435196422401 -3.4651842323619535 0.057780331666923625 -3.0167431879257522 0.8251262889318323
0.37828434630748536 -0.23826603496849633 -0.32754252363442166 -2.9112770741250964 0.15673976996939476 -1.8843602694802395 0.4827238715033235 -1.9392879877278109
-0.039116409397316296 0.15680541608332346 0.8112655158697673 -3.3878996416725538 -2.4793870045041877 -1.8852133605880237 -3.4298025794879874 -1.3365337191180524
-1.3896269912788326 3.0628881461790214 -4.402015213018412 -2.1162026547111297 0.8237833815850599 2.782834562239675 -0.47873437379722045 1.502775749120871
-1.438515908157221 -0.6672529875545646 0.9322864249892236 3.399688760478889 -0.4772983200469586 1.5220780805506011 -2.4426132221764414 -2.6698561056675043
-1.2719746396072065 0.8805074094844776 0.01621445442159107 -4.160636755772014 -0.8956391898703717 -0.05693775729158494 -0.4921138831254978 -2.820976729468943
0.6270893927368109 -4.0855134895723655 0.024401907037610127 -2.0918791244063875 -0.40703223051003085 -1.574717638023837 1.9947361107723596 4.460634520493642
-0.2837935149272609 1.1400221938592718 3.6694289829446487 -3.049844586251122 -2.1569708830536256 -0.03887268878196635 -4.044484733202118 0.6596072093016278
-0.4160081423863033 0.889918994850118 -0.2958954373738416 0.9792621911447336 -0.1473245187412981 -0.24279788383133855 -1.8449664333560714 -1.3863748444157868
-3.1815413064145908 -3.9755121009033494 -0.236293072492663 -2.021426575406846 0.9664817706910049 1.029553718163165 -1.1903461755671563 -0.19800449585305172
